test/vision_embedding/mobilenetv3_embed.onnx (onnx, 207267 bytes, 17 tensors)

0.1.block.1.fc1.bias f4 [8]
00000000: 9151 ecb0 9532 1fb1 a77f 2bb9 bd04 01b1
00000010: a12d b1b0 9199 9632 5760 c2b1 35b2 d42e
-1.7194443e-09 -2.3166298e-09 -0.00016355385 -1.8774664e-09 -1.2891413e-09 1.7532132e-08 -5.6570957e-09 9.6723e-11

0.1.block.1.fc2.bias f4 [16]
00000000: 4580 113f 198d 243f 1c8a c73e 6d90 91bf
00000010: 9379 38bf b783 ad3f f103 b9be cc06 febe
00000020: afa2 113f 0b0a b2be 6cb3 223f cf6f 6ebe
00000030: 6891 debe bc53 e0bd b353 273e dd7f b7be
0.5683635 0.642778 0.38972557 -1.13722 -0.7206051 1.3555821 -0.3613582 -0.4961456
0.5688886 -0.34773287 0.63555026 -0.23284839 -0.4347031 -0.10953471 0.16340522 -0.3583974

0.4.block.2.fc1.bias f4 [24]
00000000: 8cbd 48b1 0739 d9b1 705b a2b0 39ea 90b1
00000010: 2896 12b1 2171 a4b1 488a 5eb1 a325 f431
00000020: 2bf0 91af bc9d cbb1 a00f 533e 584d 04b1
00000030: d329 86b1 b027 f4b2 480c 4930 875e bdaf
00000040: a531 fbb0 3cd1 99b1 65a7 8cb0 2dab aeb0
00000050: a385 2031 1f12 11b2 9c92 8ab1 782d f7ae
-2.9211575e-09 -6.3220145e-09 -1.1813039e-09 -4.2175796e-09 -2.133115e-09 -4.7858895e-09 -3.2383856e-09 7.1056134e-09
-2.6545996e-10 -5.92601e-09 0.20611429 -1.9252493e-09 -3.904668e-09 -2.8423386e-08 7.3140827e-10 -3.4446065e-10
-1.8276763e-09 -4.4766733e-09 -1.0233917e-09 -1.2708817e-09 2.3359028e-09 -8.444231e-09 -4.032996e-09 -1.12403364e-10

0.5.block.2.fc1.bias f4 [64]
00000000: 7a97 24bc 34dc 903e 21f2 97b9 bbd8 ca3d
00000010: b3f3 073e 9db9 e03d 65e2 573e d119 fd3d
00000020: d423 14be ffa0 e3bd d897 4a3e 1400 363e
00000030: 4516 b5be f76b b0bd a305 dc3d c79a e23c
00000040: 59cc 4ebd dde2 c53e cd9d e03d 258d c9bc
00000050: 35e8 ab3d f465 103d 3f59 e93d 50b5 e23e
00000060: 9bd6 923d 7627 1d3e 6539 2d3e a72e 883b
00000070: 8db2 503e 7563 40bd 6bc2 0dbe 031a 163e
00000080: 4f51 a6bd d366 35bc 950e e53d 67ec d93d
00000090: f925 bbbc 914d 943e b05e 9ebc a914 77bd
000000a0: e30e 123f cb9e 653e 7090 5e3e 6338 d23d
000000b0: eb5a 983e 7cb6 163d 0de5 c1bd 73be 923c
000000c0: 333c c7bc 7cb5 0c3e cdef c6bd c4c5 8c3d
000000d0: 104a 603c ede8 6f3c 6090 553e 882b ff3d
000000e0: 8820 0ebd 652c 303d 208a 093f 1496 823e
000000f0: 95e5 813d 310b 613d f968 69bc 2c90 193e
-0.01004588 0.28293002 -0.00028981364 0.09904619 0.13276558 0.10972903 0.21082456 0.1235844
-0.14466792 -0.11114692 0.19784486 0.17773467 -0.35368553 -0.08614343 0.107432626 0.027661694
-0.05048785 0.38649645 0.10967598 -0.024603436 0.08393899 0.03525348 0.113939755 0.44278955
0.07169839 0.15347084 0.16916426 0.004155952 0.20380612 -0.04696985 -0.13843696 0.1465836
-0.08120977 -0.0110718785 0.11184422 0.10640793 -0.022845255 0.28965428 -0.01933226 -0.060322437
0.57053965 0.22423856 0.21734786 0.10264661 0.29756865 0.036795124 -0.09467516 0.017913079
-0.024320697 0.13741106 -0.09713707 0.06873658 0.013689533 0.014642936 0.20855856 0.12459475
-0.034698993 0.043011088 0.5372639 0.25505126 0.063426174 0.054942314 -0.014246219 0.14996403

0.6.block.2.fc1.bias f4 [64]
00000000: 7d30 1c3c e99e 963d 8b12 57bd cdb7 643e
00000010: 9c06 0b3e 09dd 313e a4c5 913c 1b34 a9bc
00000020: dd86 433e 0736 903e 5fb3 973d c779 143e
00000030: 2ba8 f53d 9417 b53d 6f62 30bc 7049 22bd
00000040: 0b13 943c d969 623e 69e7 b73e dd3a a03e
00000050: cf98 23bd 9b46 233e 8565 883d f13b 183e
00000060: c58f 8fbd 60f0 773e b94c 793d a5af 83bb
00000070: b012 883d 9be5 643e 339d 15be 39e9 013d
00000080: ab7d 5cbd 250f 773d eb46 d53c b4bc f33d
00000090: d93b 1f3f d587 223e 3438 8b3d ad92 653e
000000a0: bd42 403e 311a 973d 5c46 fb3c b130 1e3e
000000b0: 256e 513e c582 883e ec06 803c 5782 e83d
000000c0: 0d86 d73d 9338 163d 493d e43d 9ec3 a83e
000000d0: 5548 d0bc 6d7e 29be ebc6 7cbe d0a6 b13e
000000e0: 2423 b53c 675c 9a3d 6c1f 5b3d d0f8 323d
000000f0: 20db 033e 50ea 623e ad1f f23c 850c 103d
0.009533045 0.073545285 -0.05250792 0.2233574 0.1357674 0.17369474 0.017794438 -0.020654729
0.19094415 0.2816622 0.07407259 0.1449958 0.11994966 0.08842388 -0.010765656 -0.039620817
0.018075487 0.2211069 0.3591874 0.3129491 -0.03994065 0.15944903 0.06659988 0.14866616
-0.07009844 0.2421279 0.060864184 -0.004018741 0.06644189 0.22353213 -0.14610748 0.03171656
-0.053830784 0.060317177 0.026034793 0.11901227 0.62200695 0.15872128 0.06797829 0.22419234
0.18775459 0.073780425 0.030673198 0.15448262 0.20452173 0.2666227 0.0156283 0.11352985
0.10523615 0.036675047 0.11144502 0.32961744 -0.025425116 -0.16552134 -0.24685256 0.3469758
0.022111483 0.075371556 0.053496763 0.043694317 0.12876558 0.22159696 0.02955612 0.03516819

0.7.block.2.fc1.bias f4 [32]
00000000: 88fe 2f2f 1ce5 84b1 f528 1cb2 5f18 45b4
00000010: dcf0 66b4 7dd0 6e30 c923 1bb3 8dc9 04b2
00000020: cd6c e232 0cc3 3d3d 9dcd b839 739b edb2
00000030: 0f30 a03e 2b1b b632 4906 8132 bbf4 1d3d
00000040: b1b3 ebb5 95e7 ae32 25bb 62bd 9fa6 ef32
00000050: 9336 b43c 6886 2032 65d5 06bd bdf4 55b3
00000060: 61bc a1b2 23a5 a830 b1ab 04b3 910d 0eb2
00000070: 3093 fab0 989f 9531 9d5f 333d a191 9432
1.6006585e-10 -3.8677523e-09 -9.089708e-09 -1.8355921e-07 -2.1508043e-07 8.6880175e-10 -3.6121296e-08 -7.729239e-09
2.635934e-08 0.04632859 0.0003524841 -2.7661121e-08 0.31286666 2.1199943e-08 1.5020435e-08 0.03856347
-1.7561161e-06 2.0361577e-08 -0.055354256 2.7899032e-08 0.02199868 9.343786e-09 -0.032918353 -4.9815515e-08
-1.8828532e-08 1.2270543e-09 -3.0889797e-08 -8.2685725e-09 -1.8231727e-09 4.3546144e-09 0.043792356 1.7295692e-08

0.8.block.2.fc1.bias f4 [40]
00000000: ccaf 343e 77f8 af3d 7b4b a63e 7128 043f
00000010: d5fc aa3d 2f2f 763e 0749 fd3d 354b 433e
00000020: 2db4 e53d fea4 1cbd fd79 813d 1344 053e
00000030: 9bce b73e 4184 833e 4bc1 9c3e 6bad 893e
00000040: e375 9c3d 2895 8f3e 904a 843e fb76 e93c
00000050: 39d8 0b3e b8eb 623e 2893 d13e 54bc 053f
00000060: 8159 993e 2188 c13d 173b 8e3e f97d 903e
00000070: 87b0 e03e 99af 873d b4df 773e 3d4f 413e
00000080: 5deb f63e 03ba a93d 2d88 103e bbb6 ae3e
00000090: b764 853e 63a6 c83e 0d04 b73e 7b71 5e3e
0.17645186 0.08592313 0.32479462 0.5162421 0.08349005 0.24041437 0.123674445 0.19071658
0.112160064 -0.038243286 0.063220955 0.1301425 0.35899815 0.2568684 0.3061622 0.2689012
0.076396726 0.28043485 0.25838137 0.028499117 0.13656701 0.22160232 0.40932584 0.5224049
0.299511 0.09449793 0.27779457 0.2822111 0.4388468 0.066252895 0.2420643 0.18877883
0.48226443 0.08287432 0.14114447 0.34123787 0.26053402 0.39189443 0.35745278 0.21722977

input_bias f4 [16]
00000000: 8a7a 9240 7d38 2240 d5b0 3140 0d2e 25c0
00000010: 59b3 3040 d8d6 2e40 a71e 783e 8deb fdbc
00000020: e5ad 2b40 cf06 2440 742b 2440 1689 6dbf
00000030: b252 a93e 856c ff3e 0538 8e3f 5aa6 22c0
4.5774584 2.5346978 2.776418 -2.5809357 2.7609465 2.731863 0.24230443 -0.030996108
2.6824887 2.5629156 2.5651522 -0.927873 0.33070904 0.4988748 1.1110846 -2.5414033

hardswish_bias f4 [16]
00000000: bafe c83e dce3 e03f 0caa 5740 3eb3 8a3e
00000010: 03af e73d a949 4340 86c4 0b3e 0152 223f
00000020: 5ad1 f43f b612 cc3e b037 623e cead 103e
00000030: 1e26 883e f109 753e 448c c53d 8ece d33f
0.3925684 1.7569537 3.3697538 0.27089876 0.11312678 3.0513709 0.13649186 0.6340638
1.9126389 0.39858025 0.22091556 0.14128801 0.2659158 0.23929574 0.09645894 1.654741

mul_bias f4 [16]
00000000: d418 8340 efac cac0 3e12 77c0 3a97 12c0
00000010: 4e61 8bbf 527a a63e ce1f 9dc0 228d e8be
00000020: 2f6d 0ac1 da0a 52c0 e956 ee3e 76eb 19c0
00000030: 11b3 48c0 c9cf 03c0 4a9a 8fbf e0b0 3840
4.096781 -6.33361 -3.8604884 -2.2904801 -1.088907 0.32515198 -4.9101324 -0.45420176
-8.651656 -3.2819123 0.46550682 -2.4049964 -3.1359293 -2.0595572 -1.121896 2.8857956

relu_3_bias f4 [24]
00000000: 1677 0fbf 9c4b a1bf 46f3 8640 848b 1fbf
00000010: ea4b cebf 554f 23c0 d17c 913f 2638 ad40
00000020: 9443 7fc0 bc76 ccbf 5d8c 55bd 10cd fd3f
00000030: 1b9d 5c3e 501c 673f d41a 3340 8a70 e93f
00000040: 37f9 2240 7727 683e c1df 1540 df32 e33f
00000050: 8c55 bfbf 45a5 4dbf 54c5 d8bb a619 56c0
-0.56041086 -1.2601199 4.2171965 -0.6232226 -1.6116917 -2.551717 1.1366216 5.413104
-3.9884996 -1.5973735 -0.052135814 1.9828205 0.21544306 0.90277576 2.7985125 1.8237469
2.5464609 0.22671305 2.3417819 1.77499 -1.4947982 -0.80330306 -0.00661532 -3.3453155

relu_5_bias f4 [24]
00000000: d401 86c0 44f0 fb3e ce9c c23f 2a2c d73e
00000010: 397a 333f fc73 5440 8cc1 2ebf e455 0640
00000020: efb8 f3be d9fd 84be 80f5 253e f2f2 73bf
00000030: 7d8e b0bf 0dc7 04c0 3c4a 79bf d519 ae3f
00000040: c6f8 00c0 7cb0 21c0 d513 0c3f 692e 48c0
00000050: c2a8 e0be 2be4 993e cb3b b23f 44b4 76be
-4.187723 0.49206746 1.5204103 0.42025882 0.7010837 3.3195791 -0.6826408 2.0989923
-0.4760203 -0.2597492 0.16206932 -0.9529258 -1.3793484 -2.074649 -0.973789 1.3601633
-2.015184 -2.5263968 0.5471776 -3.1278327 -0.43878752 0.3005689 1.3924497 -0.24092203

mul_1_bias f4 [40]
00000000: 2f99 953c 7412 e3bf 3b2d e7be dc64 1ec0
00000010: 59b0 573f 3a9f 953f 8ed8 2ebf 5215 37bf
00000020: 6de9 ec3f 3692 133f 1be1 5b3f 7605 b13f
00000030: 3622 03bf 7dd0 5bc0 715e 0e40 606f b8bd
00000040: 4174 1540 5460 93c0 c52a 4240 c406 0d3f
00000050: 9a00 35be c5ff 56bf 0763 003f 8558 e5bf
00000060: 020f 133f 3492 143f 793b c83f 83c3 15bf
00000070: ba4e b1bf 9231 4240 ab85 cf3e c9a8 0fbf
00000080: ad8f d9be ce85 963f 66b1 1cc0 c18c bfbd
00000090: 3e05 fbbf eb96 bd3f 9f8e 5bbf 09bf 3cbf
0.01826152 -1.7740006 -0.45151696 -2.474906 0.8425346 1.1689217 -0.68299186 -0.7151691
1.8508736 0.57644975 0.8589036 1.3829792 -0.51224077 -3.4346 2.2245142 -0.09005618
2.3352206 -4.605509 3.0338604 0.5508845 -0.1767601 -0.83984023 0.50151104 -1.7917639
0.57444775 0.5803559 1.564315 -0.5850145 -1.385215 3.0342755 0.40531668 -0.5611692
-0.42492428 1.1759584 -2.4483275 -0.093530186 -1.9610975 1.4811682 -0.857645 -0.73728997

mul_2_bias f4 [40]
00000000: f127 c4be 9c48 5c3f ffc6 20be a2d6 cd3e
00000010: 07ce 1b3e a7e4 d3be c230 f1be 0a8f 31bf
00000020: 1eb4 24bf 13db b7bd 0402 803d e215 cbbe
00000030: 68cb bd3e a432 55bf 6159 233f 8417 a13f
00000040: 7170 183e 2df5 ef3e 4c73 eabc 96b1 63be
00000050: a264 20be 8c6b 113d 2c84 4abe 5eb9 883e
00000060: 5d68 1ebf cb3c a0bf 078f 0d40 d8f4 873f
00000070: cd89 a6bb e85f 553f 5b2f 933e e3cd 6f3e
00000080: 7bd5 cfbe db8f 983e be46 88bf e17b 6e3f
00000090: 7a64 983e 9bb6 88bf a778 2f3e b0eb 923f
-0.38311723 0.86048293 -0.15700911 0.40202814 0.15215312 -0.41385385 -0.47107512 -0.69358885
-0.64337337 -0.08977332 0.062503844 -0.39665133 0.3706925 -0.83280396 0.63808256 1.2585301
0.14886643 0.46866742 -0.028619431 -0.22235712 -0.15663388 0.035502955 -0.19776982 0.26703924
-0.61877996 -1.2518553 2.2118547 1.0621595 -0.005082345 0.83349466 0.28747067 0.23418383
-0.4059256 0.29797253 -1.0646589 0.93157774 0.29764158 -1.0680727 0.17135869 1.1478176

mul_3_bias f4 [40]
00000000: af99 a240 4846 bcbd 6a0e b8bf 08b2 5abf
00000010: fbde d9be cb09 d3be 6460 bb3e b31b 6fbf
00000020: 98c4 2fbf e5dd 4ebe 5184 19bf 9f84 473d
00000030: 68f3 6c3e 0cb7 2ebf 7af9 c43e d920 c43e
00000040: c426 d2be c203 afbd b686 0dc0 b1c0 48bf
00000050: 50cc f33f bb97 573f 87c6 dc3f 3530 a7bf
00000060: 7894 47bc 3d13 583f 1026 5b40 3cde 273f
00000070: c372 8040 0b92 883f 02ac 8cbf 35b9 28bf
00000080: 23eb ea3e 5a1f 0040 bf8c 89bf c4ea a13f
00000090: 96e7 543d 3c30 00c0 d5f1 43be fee9 93bf
5.08126 -0.091930926 -1.4379399 -0.85427904 -0.42552933 -0.4121841 0.36596978 -0.9340164
-0.68659353 -0.20201834 -0.59967524 0.04871046 0.23139727 -0.6824806 0.38471586 0.3830631
-0.410452 -0.085456386 -2.211347 -0.78419024 1.9046726 0.842159 1.7248086 -1.3061587
-0.012181394 0.84404355 3.4241982 0.6557348 4.014009 1.0669569 -1.0989993 -0.65907604
0.4588252 2.0019135 -1.0746077 1.264977 0.05197867 -2.002944 -0.1913522 -1.1555784

mul_4_bias f4 [48]
00000000: 8740 5f3e a06c 9cbe 28f9 8e3e 52b3 00c0
00000010: 17fa 32bf 6939 babe c384 02be 2338 36bf
00000020: a06b 2340 0bb4 1cbd 1e1d 03bf ed14 4a3f
00000030: 75d6 50c0 ae2f 503e 0c05 2b3e 0335 423e
00000040: fbc6 3dbf 46e6 68bf fcf3 73bf dcc6 14be
00000050: 9999 99bf 53d0 863f 8c48 28bf bfb0 fdbe
00000060: 0447 483f 44f4 133f 8c81 6c3f e91a f83e
00000070: 0978 98bf 2fa8 c7bd cec3 1fbe daf6 abbf
00000080: 14a1 c43d feaf 8abf fbb3 66be becc 573f
00000090: d716 d5bf 6a88 d1bf 0592 7c3f bfe7 473f
000000a0: 4908 5c3f b970 f4be 373c 5a3e 8f6f 43bf
000000b0: 9908 6bbf 7e32 263e 1039 b3bf f568 1cbf
0.21801959 -0.30551624 0.27924466 -2.0109448 -0.69912857 -0.36371925 -0.12745957 -0.7117941
2.553444 -0.03825764 -0.51216304 0.7893818 -3.2630894 0.20330688 0.16701144 0.18965535
-0.74131745 -0.9097637 -0.95294166 -0.14528984 -1.1999999 1.0532326 -0.657357 -0.4954891
0.7823336 0.57794595 0.9238517 0.4845803 -1.1911632 -0.09748875 -0.15602037 -1.3434708
0.09601036 -1.0834959 -0.22529595 0.84296787 -1.6647595 -1.6369755 0.9866031 0.7808799
0.8595014 -0.4774225 0.21312033 -0.763421 -0.91809994 0.16230199 -1.4001789 -0.6109765

mul_5_bias f4 [48]
00000000: 60ac 0240 994e cebd b911 00bf 6809 263f
00000010: 2941 b2bf 0460 153f 7307 5abe e2ac ddbe
00000020: 29fd 1b40 deea 5bbe ede7 123d 1123 193f
00000030: 46e0 54be c1ff 84bf 8179 81be 9dd5 9b3e
00000040: e55d cebe cfda 8d3e 74c8 2c3e bd04 f63d
00000050: 932c 13be 79d7 44bf fbf1 c33e 916c 053e
00000060: b957 313f 3768 89be fe91 123d 3598 263e
00000070: 4c51 813f a697 073e 19ba 173e 9e18 b13e
00000080: 9801 4d3e b6da 00bf f571 3dbe 5c57 8dbe
00000090: 601f dbbf 11cf a53d ade9 223e 7945 2c3f
000000a0: adc3 553f 0640 063f 5b07 f43d f821 d93e
000000b0: 40e5 ba3f 25ab a53e 7394 7e3e bb77 7c3e
2.041771 -0.10073585 -0.5002704 0.648581 -1.3926135 0.58349633 -0.21291904 -0.43295962
2.4373267 -0.21476313 0.035865713 0.5981913 -0.20788679 -1.039055 -0.25288013 0.30436411
-0.4030601 0.27706 0.16873342 0.120126225 -0.14372472 -0.76891285 0.38270554 0.13029696
0.6927448 -0.26837322 0.03578376 0.16269 1.0102935 0.13241443 0.14817084 0.34589094
0.20020139 -0.50333726 -0.18500502 -0.27605712 -1.711895 0.080961354 0.15909453 0.67293507
0.835017 0.5244144 0.119154654 0.4240873 1.4601212 0.32357135 0.24861316 0.24655049
