test/camera_test/dual_cam/stereo_params.npz (npz, 2386 bytes, 8 tensors)

mtxL f8 [3, 3]
1703.812596347481 0.0 765.1717322930925 0.0 1707.1146017675078 440.6261484838476 0.0 0.0
1.0
00000000: 1fc5 4119 409f 9a40 0000 0000 0000 0000
00000010: ff33 2eb5 5fe9 8740 0000 0000 0000 0000
00000020: 0a6e 2a5a 75ac 9a40 0cc9 45b4 048a 7b40
00000030: 0000 0000 0000 0000 0000 0000 0000 0000
00000040: 0000 0000 0000 f03f

distL f8 [1, 5]
-0.04420931378971453 0.7046861605482669 0.0005811734297139032 0.0015479752413937583 -1.9790039848937095
00000000: f693 cf69 9aa2 a6bf a1f4 affd c98c e63f
00000010: 57c9 dc6f 3c0b 433f bcfe 5ac2 ad5c 593f
00000020: c55a 1c15 00aa ffbf

mtxR f8 [3, 3]
1706.8873044178079 0.0 769.3510246026303 0.0 1710.3067261956598 434.64992973132996 0.0 0.0
1.0
00000000: 5380 8799 8cab 9a40 0000 0000 0000 0000
00000010: 1ca3 fce5 ce0a 8840 0000 0000 0000 0000
00000020: be8c 6e16 3ab9 9a40 2acc b71c 662a 7b40
00000030: 0000 0000 0000 0000 0000 0000 0000 0000
00000040: 0000 0000 0000 f03f

distR f8 [1, 5]
-0.007685279059036461 0.29362178082998014 -0.0005238125992910811 -6.60336679632378e-05 -0.22020060766550478
00000000: e2d2 8163 997a 7fbf 00b7 8302 b3ca d23f
00000010: 451a d9fd 0e2a 41bf 4549 00c7 714f 11bf
00000020: 21c8 3d94 882f ccbf

R f8 [3, 3]
0.9998511424218924 -0.008994089173995391 -0.01472410803976935 0.009425801938876877 0.9995198008688917 0.029518162693841807 0.0144515485483614 -0.029652555217742505
0.9994557912752385
00000000: 9f3f b2d2 c7fe ef3f 547f e036 7e6b 82bf
00000010: 16da f253 ac27 8ebf 0045 87b8 d54d 833f
00000020: 5af6 0df3 10fc ef3f e9d9 a15d 023a 9e3f
00000030: 8457 2203 c698 8d3f 0db6 9c4b 3d5d 9ebf
00000040: 0166 2ab6 8afb ef3f

T f8 [3, 1]
-0.11548620001174106 0.0011127718911477054 -0.00030203732230344284
00000000: fa92 30ec 8090 bdbf ac44 58b8 4d3b 523f
00000010: 481c e56b 58cb 33bf

E f8 [3, 3]
1.892822098635396e-05 0.00026889575429670133 0.0011210818977952389 0.0013669620643763042 -0.003421744372124735 0.11542779864427076 -0.0022011562946031944 -0.11542073526922113
-0.003392555867291251
00000000: 1bee 1471 01d9 f33e 1f42 8278 529f 313f
00000010: c929 9485 285e 523f e9aa 2057 7465 563f
00000020: 19b4 8d05 eb07 6cbf 67f6 391c ad8c bd3f
00000030: 56fe 8ec9 2808 62bf cff6 429b 368c bdbf
00000040: f0ec fe8f b4ca 6bbf

F f8 [3, 3]
-2.618551338870627e-09 -3.712738725628678e-08 -0.00024588430097610903 -1.8872898408006586e-07 4.715077647376536e-07 -0.027216133371322983 0.0006038106164175911 0.027025516160064295
1.0
00000000: 2b08 b05a 417e 26be 4947 d3ce bfee 63be
00000010: 27c4 0208 411d 30bf 6f41 30b3 ad54 89be
00000020: 65c9 6414 71a4 9f3e fa7c 03cb 8bde 9bbf
00000030: e7e4 dc6c 21c9 433f 388e 42b0 93ac 9b3f
00000040: 0000 0000 0000 f03f
