stereo_params.npz (npz, 2386 bytes, 8 tensors)

mtxL f8 [3, 3]
0	0x409a976c340f629e	1701.8556673435155
1	0x0000000000000000	0.0
2	0x40880c8bc9f06401	769.568256261875
3	0x0000000000000000	0.0
4	0x409a92f7a2ce0c39	1700.7418319888077
5	0x407a4dc986b86475	420.86170074489866
6	0x0000000000000000	0.0
7	0x0000000000000000	0.0
8	0x3ff0000000000000	1.0

distL f8 [1, 5]
0	0xbf600f836782a900	-0.0019605223170248154
1	0x3fd368d265b7e0fd	0.30327281888413876
2	0xbf56802f9a8a54f4	-0.001373335350000557
3	0x3f50b571d37a9e2c	0.0010198222716243472
4	0xbfe329dfff81d7b6	-0.5988616934180218

mtxR f8 [3, 3]
0	0x409aafc735197513	1707.9445384957987
1	0x0000000000000000	0.0
2	0x4088078adf021266	768.9428081666817
3	0x0000000000000000	0.0
4	0x409aaeb6bd273b17	1707.678455937368
5	0x407aa69ff5e3c3ab	426.41405285807076
6	0x0000000000000000	0.0
7	0x0000000000000000	0.0
8	0x3ff0000000000000	1.0

distR f8 [1, 5]
0	0xbf7bd4ef7ca79f68	-0.006794867988425192
1	0x3fd9902f13e098d9	0.39942528668542604
2	0xbf5a6a07a5a33ffd	-0.0016121935537292125
3	0x3f52776d551872ac	0.0011271064471493437
4	0xbfec0c242c8b092a	-0.8764820928557004

R f8 [3, 3]
0	0x3fef9ad47ea9393b	0.9876501535270913
1	0x3f956dbc8ab3c426	0.020926423993788877
2	0xbfc3dff04ba94064	-0.15527156538383047
3	0xbf90d9f2f6b5e678	-0.016456409748093453
4	0x3feffb32cdb18058	0.999413873429158
5	0x3f9ebd1b9935e5a8	0.03001826403258226
6	0x3fc3f18a5f248986	0.15580873151436608
7	0xbf9bbe1787392ef2	-0.027092330578212427
8	0x3fef98e8aed06495	0.987415639337217

T f8 [3, 1]
0	0xbf9980eae3199768	-0.024905843840677205
1	0xbf5508adf2887ddb	-0.001283807631018755
2	0xbf894d7d201a0a96	-0.012354829351584311

E f8 [3, 3]
0	0xbf3a6effbfa80c41	-0.0004033445726749387
1	0x3f895bed7609dec9	0.01238236919856152
2	0xbf4d62bef840c07c	-0.000896781203215027
3	0xbf810af7d2f86c72	-0.008321701169782456
4	0xbf4e9515f4c9331b	-0.0009332997520431237
5	0x3f9b25a3e33227c7	0.026510773412645763
6	0x3f5b7d429bcdd092	0.0016778135752391382
7	0xbf99760c51f18bbe	-0.024864380361019782
8	0xbf4f07c07a9a86b1	-0.0009469690168837

F f8 [3, 3]
0	0x3e795c492584b71f	9.447519156289701e-08
1	0xbec85875cbaf860b	-2.9022154115355582e-06
2	0x3f58ad7bbf30b240	0.001506205412407216
3	0x3ec05a804856f197	1.949491493317793e-06
4	0x3e8d5d58a826676e	2.1878357265859437e-07
5	0xbf88e84ed2a7f60e	-0.012161842158998428
6	0xbf59cea5c9bb036c	-0.0015751475356610934
7	0x3f88c3a08cbb94ce	0.01209187917215573
8	0x3ff0000000000000	1.0
