stereo_params.npz (npz, 2386 bytes, 8 tensors)

mtxL f8 [3, 3]
000000 4b 7a 74 c4 18 46 94 40 00 00 00 00 00 00 00 00
       1297.5241869163171 0.0
000010 43 01 7b 41 42 01 87 40 00 00 00 00 00 00 00 00
       736.1573514566193 0.0
000020 c8 a9 ee 2d 98 4b 94 40 29 39 a6 11 e4 e5 7f 40
       1298.898612717736 510.36818089419336
000030 00 00 00 00 00 00 00 00 00 00 00 00 00 00 00 00
       0.0 0.0
000040 00 00 00 00 00 00 f0 3f
       1.0

distL f8 [1, 5]
000000 a0 2c e7 4b 08 85 a3 3f a4 f2 43 3d 7d 2b c4 bf
       0.0381243317275104 -0.15757718554950373
000010 9a b4 7d 37 40 3a 74 3f 11 1f 1c dd ed 97 74 bf
       0.004938364836431531 -0.0050277034331498585
000020 92 d1 33 fa 7c 94 ec 3f
       0.8931260000959347

mtxR f8 [3, 3]
000000 8a 47 f5 5c e9 eb a2 40 00 00 00 00 00 00 00 00
       2421.955787339194 0.0
000010 a6 70 01 13 c3 2a 8a 40 00 00 00 00 00 00 00 00
       837.3452510941031 0.0
000020 00 86 f6 01 2f f2 a2 40 0b b3 76 27 75 98 80 40
       2425.0918118513655 531.057204177226
000030 00 00 00 00 00 00 00 00 00 00 00 00 00 00 00 00
       0.0 0.0
000040 00 00 00 00 00 00 f0 3f
       1.0

distR f8 [1, 5]
000000 b3 df bc ea 2c 87 d6 3f 41 44 a4 10 d2 15 21 c0
       0.3520004551278319 -8.542618293811872
000010 7c 27 90 55 30 7f 7b 3f 5a 7e b0 91 0d 82 80 3f
       0.006713093572224934 0.008060556419933796
000020 74 b4 4d 70 ba 50 58 40
       97.26137931431168

R f8 [3, 3]
000000 d7 15 8f 60 00 f6 ef 3f ff a4 86 18 72 f5 7d bf
       0.998779476730017 -0.007314153372513176
000010 8b 62 d5 da 83 02 a9 bf f0 93 c1 42 6f df 80 3f
       -0.04884731336887168 0.008238667702423513
000020 69 6f 40 0e 48 fe ef 3f 11 2c 5b f5 c4 33 93 3f
       0.9997902181962505 0.018752171969747936
000030 f3 60 12 d0 31 ef a8 3f 39 17 09 15 44 97 93 bf
       0.048699909829510356 -0.019131721290498425
000040 a4 2b 83 57 c7 f4 ef 3f
       0.9986302098490012

T f8 [3, 1]
000000 6d 28 77 eb d2 74 bc 3f 04 f1 2e d8 ae d8 68 3f
       0.11115759133022758 0.0030330099993688426
000010 e9 f5 32 c8 2f fa d2 3f
       0.29652018118562623

E f8 [3, 3]
000000 3e 93 6c f6 6e cd 62 bf 93 03 48 42 1e fa d2 bf
       -0.002295223926369521 -0.29651600334914824
000010 6c 0f 9e 45 07 bd 64 bf 9f 85 78 86 90 9b d2 3f
       -0.002531542017949853 0.29074490672982195
000020 74 40 77 c3 5a 1a 06 bf 49 3f 84 95 0a 10 c0 bf
       -4.2158026584027906e-05 -0.12548954296698359
000030 df ee 6d 2a 5e 50 61 bf 80 c4 ef e0 bf 74 bc 3f
       -0.002113517682514984 0.11115645639053362
000040 08 e7 fd 59 1a 4a 62 3f
       0.002232600658257481

F f8 [3, 3]
000000 64 c5 ed 07 8f c3 67 3e 72 4f f9 93 89 f5 d7 3e
       4.4263715351799203e-08 5.712301856048448e-06
000010 9d ce bb 2e 7a a1 67 bf 57 69 d7 d0 be 7c d7 be
       -0.002884615552710758 -5.5998055023771245e-06
000020 f4 60 38 e2 9f de 0b 3e b5 8b 2b 36 8b ba 7d 3f
       8.111129029199176e-10 0.007257980151481759
000030 fb bc 0a ee d7 dd 68 3f a4 ad 19 56 23 6b 84 bf
       0.0030354707126530856 -0.009969974579880532
000040 00 00 00 00 00 00 f0 3f
       1.0
